app/src/main/assets/comfort_model.tflite (tflite, 4852 bytes, 6 tensors)

arith.constant f4 [4, 16]
000000 3d 09 b0 bd 00 44 eb be 6e 83 48 3e 08 19 c0 3e
       -0.08595512 -0.45950317 0.19581386 0.37519097
000010 ed 83 ea bd 24 0c a9 bf 58 bd 85 3e 15 31 d4 bd
       -0.11450944 -1.320683 0.2612102 -0.10360924
000020 aa 92 7c 3f 7c 08 6b bf 7b 5d 37 bf 49 6a a2 bf
       0.9866129 -0.9180982 -0.71627015 -1.2688686
000030 fb 28 4f 3e 14 f3 0c 3f 22 32 81 bf 6d 0b 28 3f
       0.20230477 0.5505841 -1.0093424 0.65642434
000040 ad 6e 13 3e 34 64 45 bf 32 a6 ea 3e f6 a7 89 3e
       0.14397688 -0.7710602 0.45829922 0.26885957
000050 8c 09 ff be 8f 21 27 bf 89 96 28 3e f0 b4 8c bf
       -0.4981197 -0.6528558 0.16463675 -1.0992718
000060 9f e0 ee 3d b9 49 8e 3d 49 c3 8f be c4 2e d8 3e
       0.11663937 0.06947655 -0.28078678 0.4222318
000070 a4 d7 96 3e 64 6b fb 3e 83 6b c8 3c b5 17 3d bf
       0.29461396 0.4910537 0.024465328 -0.738643
000080 1a 66 fb be 13 da a9 be 90 dc a2 3e cc 6b 95 3e
       -0.49101335 -0.3317419 0.318089 0.29183805
000090 3b 07 c0 3e 75 99 b2 bc 4f b7 2a 3e 95 79 7a bf
       0.37505516 -0.02180169 0.16671489 -0.9784177
0000a0 40 ef 4b bf 61 da 19 3f a6 48 02 3f fc d1 9f be
       -0.7966194 0.60098845 0.508921 -0.31214893
0000b0 50 1b 47 3e 9b 07 50 be 52 34 64 3d 7d e3 7d bf
       0.19444013 -0.20315401 0.05571396 -0.99175245
0000c0 13 99 82 bf 63 c3 36 3f b8 69 3d bf aa 00 a8 3e
       -1.0202965 0.71391886 -0.7398944 0.32813007
0000d0 91 da 59 be 05 2e 94 3d 66 af e8 bd 69 8e c6 3f
       -0.21274783 0.0723534 -0.113615796 1.551221
0000e0 81 aa 78 bf 0f 06 1c 3f 5e 0a 81 3e 36 6b 1b 3f
       -0.9713517 0.60946745 0.25203222 0.60710466
0000f0 5f 96 6d be 4d dd 1b 3e 74 91 12 3f a4 f5 eb be
       -0.23201893 0.15221138 0.57253194 -0.46085846

arith.constant1 f4 [16, 32]
000000 aa 94 9d be 27 3a 0a 3f 3d 4a d3 3e bb 17 08 3f
       -0.30777484 0.53994983 0.41267577 0.5316121
000010 93 df cb 3e e9 13 98 3c 6f 9d 96 be 3f 25 20 be
       0.3981901 0.018564181 -0.29416987 -0.15639208
000020 97 60 13 be 75 71 77 bd b0 bf ba 3c b5 16 3d bd
       -0.14392315 -0.060410935 0.022796482 -0.046164233
000030 04 ea 01 3e 76 2e ab bc 64 56 c9 bd be ba a9 3d
       0.12686926 -0.020896178 -0.09830931 0.08287571
000040 f5 05 28 3e f0 34 7a be d8 68 1d be fa ea ab 3e
       0.16408522 -0.24434257 -0.15372026 0.3357771
000050 aa 24 c6 bd ef 90 ba be a7 b4 ab bf 54 57 11 3f
       -0.09674962 -0.364387 -1.3414506 0.5677388
000060 53 00 f7 3e 07 30 a2 be 77 c0 3e bd b8 4b ab 3d
       0.48242435 -0.31677267 -0.046570268 0.083640516
000070 0d 18 c2 3e df da 4a be 3b 99 c3 3e 67 53 83 be
       0.37908974 -0.19810055 0.38202843 -0.25649568
000080 7e 15 08 be 42 a4 91 be 8e a2 8e bc bf d6 04 bf
       -0.13289449 -0.2844563 -0.017411496 -0.51890177
000090 5c ab d2 be be 7a 26 3e fc a0 c7 3e 6a 9f c4 3e
       -0.41146362 0.1625776 0.3899001 0.38402873
0000a0 47 0f 93 3e 9c f8 ae 3c 95 05 65 be 18 74 c9 3e
       0.28722593 0.02135878 -0.2236541 0.39346385
0000b0 04 b5 39 3e b5 19 79 3e 83 2c 7a 3e a8 6c 55 bd
       0.18135458 0.24326213 0.24431042 -0.052105576
0000c0 2d c2 25 bd 61 6f 96 3e 3c 4b 37 3e 4b 22 bd 3e
       -0.040468384 0.2938185 0.17899793 0.36940226
0000d0 41 7f 51 be eb 1c e7 3e 06 0e 34 3f 13 c3 ba 3d
       -0.204587 0.4513925 0.703339 0.09119239
0000e0 f9 a4 86 be 6b ed 00 3f 77 7d bc 3d 6a d8 37 3e
       -0.2629774 0.5036227 0.09203618 0.17953649
0000f0 69 68 14 be 16 03 36 be f9 d9 49 bd e5 c5 80 3e
       -0.14492954 -0.17774615 -0.04928014 0.25150982
000100 4f 92 b2 3e c6 ef aa bd 5a 78 1a 3f 26 ad 1a 3f
       0.3487725 -0.083465144 0.6033989 0.60420454
000110 7e 01 0d 3f 06 2c 29 3f 0a 50 b7 bc 75 8b 2c 3d
       0.550804 0.660828 -0.022377033 0.042125184
000120 c0 44 43 be cb ba 41 3e de d4 38 3e 12 9a 68 be
       -0.19069195 0.18918912 0.18049952 -0.22715023
000130 c0 e0 d2 3e 06 f7 98 bc ad 93 56 3e 39 7b 6c 3e
       0.41187096 -0.018672477 0.20954771 0.2309388
000140 4d 6d 49 3e 02 16 4e be f6 6d 9b 3e 7b fd 7f 3d
       0.19670601 -0.20125583 0.3035733 0.062497597
000150 ea 2f 18 3e 00 5b 36 be 6f 1c aa bf df 8d 27 3f
       0.14862028 -0.17808151 -1.3289927 0.65450853
000160 0a fa b7 3e 8e dd c5 be 42 4c 03 bf 03 64 91 be
       0.35932952 -0.38645595 -0.51288235 -0.28396615
000170 44 3d ab bd 16 6d 18 3e f6 df 02 3f 00 f8 68 bb
       -0.08361295 0.14885363 0.5112299 -0.003554821
000180 10 ea c9 3c 20 6c 03 bd 34 6e ce 3d 3c bf b5 3d
       0.024647743 -0.032085538 0.10079613 0.08874366
000190 d4 20 91 be 70 95 c6 3c 63 dd 2d be a2 75 22 3e
       -0.28345358 0.02424118 -0.16978984 0.15865186
0001a0 60 09 e5 3d 7f bf 95 be 80 2d f5 3d 5a f9 dd bd
       0.11183429 -0.29247662 0.11971569 -0.10838576
0001b0 00 f2 ce 3c 00 47 74 bb 5d 60 57 be 40 2f bf 3c
       0.025261879 -0.0037273765 -0.21032853 0.02333796
0001c0 00 76 15 ba 20 60 d7 bc 66 5f 3c be cf 53 84 3e
       -0.00057014823 -0.026290953 -0.18395767 0.2584519
0001d0 06 56 24 3e e6 da 0a be e8 e7 29 bd e6 5b 94 be
       0.1604844 -0.13560066 -0.04148093 -0.28976363
0001e0 83 96 a3 3e 8b 78 56 be 48 cd 6c be 81 85 ae 3e
       0.3195077 -0.20944421 -0.23125184 0.3408623
0001f0 7e 11 50 be 1c b6 b7 3d 03 63 5c be 3c 2a a9 be
       -0.20319173 0.089702815 -0.21522145 -0.33040035
000200 34 9f 84 3d 40 01 8c be b1 21 0f 3e 2c af a3 bd
       0.06475678 -0.27344704 0.13977696 -0.07992396
000210 06 3e 7c 3e 98 fc 8b bd 79 5c 57 3e 72 10 94 be
       0.24633035 -0.06835288 0.2103137 -0.28918797
000220 d4 5f e7 3d d7 55 13 be 13 ea 95 3e 83 22 73 3e
       0.11297575 -0.14388214 0.29280147 0.23743634
000230 4b 22 d6 3d e3 2f 8e be f2 0e a7 bd 1f b8 96 3e
       0.104557596 -0.2777091 -0.081571475 0.29437348
000240 e9 64 66 be d5 91 a5 3e c0 d7 95 be be 56 e0 3d
       -0.22499432 0.32337824 -0.29266167 0.10954045
000250 25 f7 1d be 8d ac a0 be 6d d5 80 be 59 7b 71 be
       -0.1542631 -0.31381646 -0.2516283 -0.2358221
000260 38 56 98 3d d9 76 b0 3e ee 34 4a 3e 94 26 fc 3d
       0.0743832 0.34465674 0.19746754 0.12312046
000270 31 4c 6d 3e e6 2f 51 3e 0f 1e 26 3c 32 79 2e be
       0.23173596 0.20428428 0.010139002 -0.1703842
000280 98 0c 03 3d 52 e8 8c be 7b bd 83 be 47 7a 03 3e
       0.031994432 -0.27520996 -0.257305 0.12839614
000290 8d 96 96 be 98 9d 63 3c f1 4e 00 3f 32 a1 1c 3f
       -0.29411736 0.013892554 0.50120455 0.61183465
0002a0 56 39 ce 3e 94 fe 05 be 08 3a 4d 3d 2a 8b 09 3f
       0.4027812 -0.13085395 0.05010417 0.5372797
0002b0 2e d1 fa 3c 4c c4 39 3e d2 22 ca 3e c3 4d 93 3e
       0.030617323 0.18141288 0.3947969 0.28770265
0002c0 f0 5c 0a 3e d9 40 b0 3e b6 9a 22 3f ed 81 c7 3d
       0.13512015 0.34424475 0.6351732 0.09741578
0002d0 34 18 80 3e d1 04 21 3f ea 3a 9a 3f 15 8b 73 3d
       0.25018466 0.62897974 1.2049229 0.05945881
0002e0 b3 61 ee be 7a a1 f1 3e 77 d3 73 3e 23 cf 9e 3e
       -0.46558914 0.4719351 0.23811136 0.31017408
0002f0 db 9a a6 3e 33 f6 a3 be 01 d1 32 be e3 2a 92 be
       0.3254002 -0.32023773 -0.17462541 -0.28548345
000300 89 8e 5d be ce 95 a1 be e9 09 89 be db 50 59 bc
       -0.21636404 -0.31559604 -0.26765373 -0.013263906
000310 79 0b 80 be 5b f5 89 3e d9 28 fd bd 9f a6 19 3e
       -0.25008753 0.26945004 -0.12361307 0.15004967
000320 06 17 e0 3d e1 48 12 be 18 b7 9b bd ed cb ca be
       0.10941891 -0.14285614 -0.07603282 -0.39608708
000330 24 be 89 3c c0 e6 12 3e fd 98 cc 3c c5 41 b2 3c
       0.016814299 0.14345837 0.024975294 0.021759877
000340 5d 5c 8e 3e c6 91 24 3e ff 6e 79 be 2e 8c 2b be
       0.27804843 0.16071233 -0.24358748 -0.16752693
000350 bb c6 39 be 71 d1 cb bc 27 5a 48 3e 7e d1 80 be
       -0.18142216 -0.024880143 0.1956564 -0.2515983
000360 52 6f 72 3e 47 1d 2e 3d 74 01 ca be e0 76 f6 bd
       0.23675278 0.04250839 -0.39454234 -0.12034392
000370 cf 20 4c 3e a4 a7 a6 bd e3 d5 86 3e 20 6f 70 bc
       0.1993439 -0.08137444 0.26335058 -0.014674932
000380 cc c4 a0 3d 2d b4 00 3f e6 ed 59 be 16 53 64 3e
       0.07850036 0.50274926 -0.21282157 0.2229732
000390 2c 20 c7 3e ca cf f6 3c e9 e7 75 3e c8 34 95 bc
       0.38891733 0.030128378 0.24014248 -0.018213645
0003a0 23 a0 45 be 97 0a 10 bd 60 6d e7 3d 5e 9e ab be
       -0.19299369 -0.03516635 0.113001585 -0.33519262
0003b0 38 19 df 3d f2 c5 b3 be ae 99 82 be ff a6 20 be
       0.10893482 -0.35111958 -0.25507873 -0.15688704
0003c0 48 c3 34 3e 00 70 e4 3c 44 96 34 bd 2a ed a5 be
       0.17652619 0.027885437 -0.044088617 -0.32407504
0003d0 0d 0b e2 bd 88 03 5b 3e 26 ac ad 3f b6 65 4e bd
       -0.11037264 0.21388066 1.356816 -0.050389968
0003e0 ae 88 c5 be 3f 1f a8 3d 2c 13 2d 3f f8 1b ba 3d
       -0.3858084 0.08209085 0.6760738 0.09087366
0003f0 63 a1 f0 3d 77 64 95 3e 5d f0 3a 3e 7a dd 30 3e
       0.11749532 0.2917821 0.18255754 0.17271987

arith.constant2 f4 [4]
000000 67 f7 21 be e7 c7 3b 3d d9 de c6 3d a1 ff 11 bd
       -0.15817033 0.04584494 0.097104736 -0.035644177

sequential_1/dense_1_2/Add/ReadVariableOp f4 [16]
000000 78 d2 0d 3e a1 ad 15 3d 61 bf 39 3e 00 00 00 00
       0.13849819 0.03654254 0.18139412 0.0
000010 7b 6c d7 bb 64 a6 44 3e 7e 8c 2e bd d3 54 8b be
       -0.006574211 0.19204098 -0.042614453 -0.27213153
000020 60 84 07 3e 69 f3 2f 3e 11 71 b6 3d 70 5f de 3d
       0.13234091 0.17182697 0.089082845 0.10858047
000030 1d d9 f9 bc b0 0f 2c bd a3 cb 03 3e b3 3b 8a bd
       -0.030499035 -0.04200715 0.1287065 -0.06749668

sequential_1/dense_1/Add/ReadVariableOp f4 [32]
000000 00 00 00 00 02 d4 35 bd 6e 88 10 3e b6 da 36 3e
       0.0 -0.04439164 0.14114544 0.17856869
000010 2a 7f f2 bb bc d2 a5 3d f5 88 73 3e f0 12 5b 3e
       -0.007400413 0.08096835 0.23782714 0.21393943
000020 1b 30 6d 3e f6 9d 0b 3e 00 00 00 00 7a 90 89 3e
       0.23162882 0.13634476 0.0 0.2686804
000030 bf 20 92 3e aa db ae 3e 9e 26 65 3e 7c 5d 65 bd
       0.28540608 0.34151965 0.22378013 -0.055997357
000040 2d 6e 67 3e 00 00 00 00 56 4d 8f 3e 99 58 a3 3e
       0.22600622 0.0 0.2798869 0.31903532
000050 c4 c8 be 3d 87 38 f0 3d da ed cd be a9 a4 33 3e
       0.09315637 0.11729532 -0.4022053 0.17543282
000060 ac 74 4d 3e 34 50 6d 3e 32 82 61 bd 00 00 00 00
       0.20064038 0.23175126 -0.055055805 0.0
000070 d4 c4 52 3e 00 00 00 00 c3 b8 1c 3e 00 00 00 00
       0.20582896 0.0 0.15304856 0.0

sequential_1/dense_1/MatMul f4 [32, 2]
000000 01 4d 31 be 58 74 0b be 71 3d 13 3f 62 14 14 3f
       -0.17314531 -0.136186 0.5751563 0.578436
000010 79 cc 80 be f8 18 07 3f 5c 8d 12 be 66 ee 27 3f
       -0.25156 0.52772474 -0.14311737 0.6559814
000020 45 e8 f3 bb b8 27 0b 3f cb 71 72 be ae 34 07 3f
       -0.00744346 0.5435748 -0.23676221 0.5281476
000030 8f 4d 1f 3f 8f b1 a6 be 16 ba ea 3e cd 86 92 be
       0.6222772 -0.3255734 0.45845097 -0.2861847
000040 f7 85 d1 3e ca 44 a0 be 33 fd b8 3e d6 fa 5e 3e
       0.4092252 -0.31302482 0.36130676 0.21775374
000050 50 1d e3 bc 08 e4 75 bd 6f bd 9a 3e 22 42 a8 be
       -0.027723938 -0.06003192 0.3022265 -0.32862955
000060 53 f7 18 3f a9 95 c2 bd 2e 89 e0 3e 6f 5d d4 be
       0.59752387 -0.09501202 0.4385466 -0.41477534
000070 27 e3 f9 bc db f3 00 3e 03 8e 7a 3d 2b 5a aa bd
       -0.030503822 0.12593023 0.06117059 -0.083179794
000080 75 d2 26 3f ae 09 8a be 46 50 ac be 3b 80 56 be
       0.6516488 -0.2696051 -0.33654994 -0.20947354
000090 6c d7 f4 3e 4f db ad be 33 8b 7c bb df b3 75 3d
       0.47820604 -0.33956382 -0.0038535118 0.05998599
0000a0 84 84 99 bb d4 4c a7 3e 8a 89 0b 3f b6 39 63 be
       -0.0046849865 0.32675803 0.5450674 -0.22189984
0000b0 ed 13 0e 3f 88 d3 94 3e cf 69 72 be 9f ec 14 3f
       0.55499154 0.29067636 -0.23673175 0.58173555
0000c0 d2 0f 99 be a5 78 f3 3e 16 d2 03 3f b1 99 ab be
       -0.29894882 0.47552982 0.5149244 -0.33515695
0000d0 95 5b be 3e a4 87 03 bf 00 02 64 bb 7f 04 93 be
       0.37179247 -0.51378846 -0.003479123 -0.28714368
0000e0 fd cf 04 3f d1 ef af 3e 9c 09 5f be 05 14 d6 be
       0.51879865 0.34362653 -0.2178101 -0.4181215
0000f0 01 d6 1b 3f 2b 18 f7 3e 24 ee 5a be b0 a5 60 be
       0.6087342 0.48260626 -0.21379906 -0.21938205
